mnist_cnn-scripted.pt (torch, 919248 bytes, 11 tensors)

weight f4 [32, 1, 3, 3]
000000 8e c3 36 3e 19 ae 19 be c3 02 82 bd 3a 4e 12 3e
       0.17848036 -0.15007819 -0.06348183 0.14287654
000010 a2 ec b6 be cc 70 3a 3e c9 ff b0 bd 55 6d 03 3e
       -0.35727412 0.18207091 -0.08642537 0.12834676
000020 ab 23 25 3d f0 6f 8e bb 40 60 f0 3d 1d 0b b6 3b
       0.04031722 -0.00434684 0.11737108 0.005555524
000030 9b 31 0e 3e 18 b9 f0 bd 15 32 84 bd 3c 9c f6 bc
       0.1388611 -0.11754054 -0.06454865 -0.030103795
000040 20 02 51 3b be d3 5c bc 20 4c 8e 3e ba 42 c3 3d
       0.0031892136 -0.013478218 0.27792454 0.095342115
000050 fc 8c e9 bd 68 12 5e be 4e d2 98 bd 26 52 18 be
       -0.11403844 -0.21686709 -0.074619874 -0.14875087
000060 98 1b b1 bd 70 e1 13 3d 55 17 5c 3e b8 ca 39 3e
       -0.08647841 0.036103666 0.21493275 0.18143737
000070 f0 21 8f be 21 05 56 3e c4 1b dd 3d df a9 af 3e
       -0.2795558 0.20900394 0.107963115 0.3430929
000080 c4 84 69 3e 8a ee 99 be c1 14 a5 be e6 4f 2e be
       0.22804552 -0.30064803 -0.32242396 -0.17022666
000090 a4 87 12 3e ee 31 ad bd 7d e4 ef 3d cd 4a 21 be
       0.14309555 -0.08456789 0.117135026 -0.1575119
0000a0 cf 4b b4 3e 29 d1 36 be b7 fe 6d 3e 09 e7 52 bc
       0.35214087 -0.17853226 0.23241697 -0.012872466
0000b0 a2 49 89 be 76 0b 5a 3e 5a 57 e8 bd 30 13 1c 3e
       -0.2681399 0.21293435 -0.11344786 0.15241694
0000c0 9d e7 1c be b8 d5 a4 bd 95 53 83 be a5 77 f3 bd
       -0.15322728 -0.08048576 -0.25649706 -0.11888055
0000d0 cf b5 45 3e 6c 2c 26 bc d5 e2 95 3e 80 87 8b 3e
       0.19307636 -0.010142427 0.29274622 0.27251816
0000e0 51 ad b5 bd a2 0d 91 be ac 1a 47 3e 44 f6 71 3d
       -0.08870948 -0.28330714 0.19443768 0.059072748
0000f0 0a 31 9d be 21 e7 06 3e 86 de 11 3e 20 ad a1 3e
       -0.30701476 0.13174106 0.14245042 0.31577396
000100 bc 26 3b be a4 ab 82 bd ab 2b 6b 3d 02 97 c6 3d
       -0.18276495 -0.06380394 0.057414692 0.09696771
000110 e7 92 6c be 54 bf 17 be 6c dd 66 3e df 20 b0 bd
       -0.23102914 -0.1481908 0.22545403 -0.0860002
000120 93 9a b9 3d d7 3a 91 3c c2 d3 bd 3d 65 74 81 3d
       0.09062686 0.017728252 0.09268905 0.063210286
000130 43 15 07 3e 17 51 28 3e 6b 30 af be 86 00 d3 3d
       0.13191704 0.16437183 -0.34216627 0.10302834
000140 56 e7 8e be bd fc 77 be c3 47 96 3b 2d 68 00 bd
       -0.2791087 -0.24217506 0.0045861914 -0.03134935
000150 c8 f4 56 3e 20 a6 3f be bd 0a 86 be ec 23 87 3e
       0.20991814 -0.18715715 -0.26180068 0.26394594
000160 43 15 7b 3c f1 1c 63 3e 80 95 cb 3d 6a c3 69 be
       0.015324893 0.22179009 0.09940624 -0.22828451
000170 d5 94 ef 3d 51 44 05 3e 93 1c 40 be b0 e4 05 be
       0.11698309 0.13014342 -0.187609 -0.13075519
000180 44 38 13 3e 55 50 00 3e 03 cd 99 bd 58 c2 dc bd
       0.14376932 0.12530644 -0.07509806 -0.10779256
000190 7f 99 80 3e 50 09 2d be 0e 87 1f 3e b9 2a 29 3e
       0.25117108 -0.16898084 0.15578863 0.16520204
0001a0 22 b6 84 be 1f 4f 8d be cb 9a 9b 3e 03 f8 84 bc
       -0.25920206 -0.27599427 0.30391535 -0.016231542
0001b0 6f 7a 55 3e 15 db 58 3d 57 76 13 3d ae 30 3e 3e
       0.20847486 0.052943308 0.03600153 0.18573257
0001c0 39 62 a3 3e 29 25 7c be ef c9 71 bc 9c c6 91 3e
       0.31910875 -0.2462355 -0.014757617 0.2847184
0001d0 fe 09 89 3e 97 cb 66 3e ce e2 79 be 68 4f 50 be
       0.26765436 0.22538601 -0.24402925 -0.20342791
0001e0 82 5a 57 be 53 df bc 3c 39 bb b3 3e 8c 5c b9 bd
       -0.2103062 0.023055708 0.35103777 -0.09050855
0001f0 aa db 88 3e dd 0a 1b be 1b 2d c1 be ae 50 02 be
       0.2673009 -0.15140863 -0.37729725 -0.1272609
000200 90 7a f4 3d 09 fe 91 3e 9e 1c 51 be c8 b0 4c 3d
       0.119374394 0.28514126 -0.20421073 0.04997328
000210 0e 29 9e 3e 93 bd 80 3e f7 39 1f 3e 2f b7 84 3e
       0.30890697 0.25144634 0.15549456 0.25921008
000220 73 c5 8a 3e 98 2a 0a 3e 59 71 5c be 2c bd 66 be
       0.27103767 0.1349281 -0.21527614 -0.22533101
000230 b0 e9 18 be 02 4a b8 bc e9 7d 1e be 87 85 ba 3d
       -0.14932895 -0.022496227 -0.15477718 0.091074996
000240 7d 02 93 3d 89 7d c4 bd bc c3 7f 3d 29 76 9a 3d
       0.07178209 -0.095942564 0.062442526 0.075420685
000250 d4 c2 8e 3e 22 8e 50 3e 00 2d 45 be e9 1d 99 3e
       0.27883017 0.2036672 -0.19255447 0.29905632
000260 4f 8a a8 bd 74 ae 86 3d fd 62 83 be cd 4b 3d be
       -0.08229505 0.06576243 -0.2566146 -0.18485947
000270 f5 c9 17 be 18 3b 06 be c0 ec 86 3e ef 56 b9 bd
       -0.14823134 -0.1310848 0.263525 -0.090497844
000280 b5 4c 25 be aa 93 62 3e 25 4c 17 3e 72 bc 87 3e
       -0.16142543 0.22126642 0.1477514 0.2651096
000290 8f 55 a2 bd 1c 29 d1 3d 99 4a 9e bd ff 33 65 bd
       -0.07926475 0.10212919 -0.07729072 -0.05595779
0002a0 ec 22 84 be b6 ed 00 be 11 c8 c8 bd 9c f9 e0 3d
       -0.25807893 -0.1259068 -0.09803785 0.10985109
0002b0 85 70 d9 3c 73 6c bd 3b d5 26 92 3e 58 5a af 3e
       0.026542911 0.0057807504 0.2854525 0.34248614
0002c0 77 8e 8d 3e f0 12 2f bd e1 58 69 be be 37 96 3e
       0.27647755 -0.04274267 -0.22787811 0.29339403
0002d0 57 35 fd bc 8c b4 05 be 1e bb a3 be 65 4d bc 3a
       -0.030909223 -0.13057154 -0.31978697 0.0014366327
0002e0 2d 6f 83 be e4 d8 a4 3e ce 54 4d be 54 27 3c be
       -0.25670758 0.32196724 -0.20051882 -0.18374377
0002f0 d2 5e 1f 3d 60 aa 29 be f4 b1 fe 3d 1f d2 e2 bd
       0.038908787 -0.16568899 0.124362856 -0.11075234
000300 e8 d5 3d be 05 cf 8f bb ac 42 75 3e 8a 61 77 be
       -0.1853863 -0.0043886923 0.23951215 -0.24158302
000310 8a 9e 1b 3e d1 43 64 3e b2 7f a2 3e 97 4a 6c be
       0.15197197 0.22291495 0.3173805 -0.23075329
000320 0e 89 a7 3d e0 20 30 be 43 dc a2 3e 96 19 06 be
       0.08180438 -0.17200041 0.3180867 -0.13095698
000330 ea 8e 7a 3e d6 7d 26 3d bf ee 56 bd 87 e3 27 bd
       0.2446858 0.04064735 -0.05247378 -0.04098847
000340 f5 6c 54 3d c6 90 ef 3d af 48 de 3b 2c 2a d1 3d
       0.051861722 0.11697535 0.006783567 0.10213122
000350 2f 83 b7 be 3f 50 49 3e 61 e2 ba 3e 40 69 6c 3e
       -0.35842273 0.19659518 0.36500838 0.23087025
000360 40 0c 74 3e 77 ee 6d be ec be 8d bd 7b 32 8c 3e
       0.23832798 -0.23235498 -0.06921181 0.27382264
000370 65 d1 a0 be a9 9d 9d 3e db e9 56 be b1 4e 68 be
       -0.31409755 0.30784348 -0.20987646 -0.22686268
000380 dd 8e 5a 3e df a9 8e be b7 81 55 bd f3 9a 59 3e
       0.2134356 -0.27863976 -0.05212566 0.21250515
000390 d8 f2 60 3e 69 32 aa 3e d7 b7 dc bd 41 f4 81 be
       0.21967638 0.33241585 -0.10777252 -0.25381663
0003a0 45 b6 8e 3e fe de 51 be 17 34 bb bd 94 a7 9a 3d
       0.27873436 -0.20495221 -0.09140795 0.07551494
0003b0 83 65 7e be 5d 3f 7b 3e 32 a9 76 3e 79 b8 8b be
       -0.24843411 0.2453589 0.2408798 -0.2728918
0003c0 a3 f3 4a be 5d 1a 29 3d b5 a1 2f 3e f2 39 f4 3c
       -0.19819503 0.041284908 0.1715153 0.029812787
0003d0 7b eb fb bd 65 2e 8f 3d 99 0b 83 be 90 0f 61 be
       -0.12300774 0.06991271 -0.25594786 -0.21978593
0003e0 97 9a 2e be cd e2 a8 3e 3c 46 ab 3e 1f 5a 32 bc
       -0.17051159 0.32985535 0.33452022 -0.010885744
0003f0 95 99 eb 3c f7 a9 14 3e 54 f2 60 bd b2 fa 55 be
       0.028759757 0.14517961 -0.054918602 -0.20896414

weight f4 [32]
000000 99 14 88 3f 4a 34 88 3f 56 12 8a 3f d4 76 8d 3f
       1.0631286 1.0640957 1.0786846 1.1051888
000010 bb 5c 8a 3f a8 5f 8e 3f 3d a6 88 3f da 64 86 3f
       1.0809549 1.1122942 1.0675732 1.0499527
000020 39 72 88 3f fa a8 8e 3f f8 74 95 3f e5 ee 87 3f
       1.0659858 1.1145318 1.1676321 1.061978
000030 ef 8a 85 3f 4c e0 93 3f a6 dc 88 3f a4 ed 8b 3f
       1.0433024 1.1552825 1.0692337 1.0931897
000040 5f a5 86 3f a0 47 8d 3f 02 ff 8f 3f 08 ee 85 3f
       1.0519217 1.1037483 1.1249697 1.0463266
000050 88 23 8b 3f 17 06 88 3f bb 16 83 3f e4 93 86 3f
       1.0870218 1.0626858 1.0241312 1.0513883
000060 bd 84 89 3f db 9f 88 3f c2 b0 86 3f 42 dd 8d 3f
       1.0743634 1.0673784 1.0522692 1.1083148
000070 9f ed 8a 3f 41 49 85 3f c9 47 8f 3f ba 0e 88 3f
       1.0853766 1.041298 1.1193782 1.0629494

bias f4 [32]
000000 1f 44 2b 3c dc 7e 85 3c 6f dc 16 bc c3 02 63 3c
       0.010453253 0.016295843 -0.009207829 0.013855639
000010 f3 af 1e bc ec a8 62 3d 1b 26 bd bc 77 bd 00 3b
       -0.009685504 0.055336878 -0.02308946 0.001964418
000020 8f 9f 11 3d ee 17 90 ba 61 24 c0 bc 9b b1 ec bc
       0.035552558 -0.001099346 -0.023454847 -0.028893283
000030 7e 70 a6 bc 37 2e 23 bd 75 db e4 3b 77 c0 6f bb
       -0.020317312 -0.039838996 0.006984169 -0.0036583224
000040 9c ad 16 bb 45 4d 36 3d ce 41 00 3d 3c 6a 00 bc
       -0.0022991663 0.044507284 0.031312756 -0.007837828
000050 65 60 8b 3d 46 4e 8d 3c 87 4f 9d bb 58 f3 0c bb
       0.06805495 0.017249238 -0.00480074 -0.002150735
000060 d7 22 20 bc ec 5d 78 38 3e ba 1a bd 72 cc 01 3a
       -0.0097739315 5.921528e-05 -0.03777527 0.0004951424
000070 3e b3 8e 3c 66 ff 97 3c 41 80 0b 3d f3 a0 07 3d
       0.017419454 0.0185544 0.03405786 0.033112478

running_mean f4 [32]
000000 4a ba be 3a f8 29 13 3b 25 72 61 ba 70 53 18 b8
       0.0014551368 0.0022455435 -0.00086000777 -3.631733e-05
000010 2d f3 1b 3c 3c 71 44 bc d9 94 dc 3c 6f 40 86 ba
       0.009518427 -0.011989888 0.026926445 -0.0010242591
000020 ee 19 0e 3b 89 ea 7f b7 7f 33 87 39 41 8f 62 3b
       0.0021682936 -1.5253791e-05 0.00025787574 0.003457025
000030 0f 38 94 3d 91 e5 d4 ba 2d e8 fc 3c 08 ac 53 ba
       0.07237255 -0.0016242733 0.030872429 -0.0008074646
000040 15 9a 29 3d 3c c1 e4 bc d9 a1 4b bc 27 e1 90 3d
       0.04140671 -0.027924173 -0.012428724 0.070741944
000050 f8 0a 4e bd a8 39 05 3b 95 81 e0 3c ec 3c 36 3d
       -0.05030343 0.0020328555 0.02740554 0.044491693
000060 12 45 89 ba 1f 5e 1c 3c ad 4e ec ba 2c a3 3c ba
       -0.0010472855 0.009543925 -0.0018028818 -0.00071959454
000070 96 c6 df 3b 33 33 21 39 55 12 5c ba fa 5f 80 3a
       0.006829093 0.0001537323 -0.00083950657 0.0009794228

running_var f4 [32]
000000 42 8a 4c 3d e6 7e a9 3c cc d7 8d 3d e7 f4 55 3e
       0.04993654 0.020690393 0.069259256 0.20894204
000010 07 b8 0d 3e c5 fe 92 3d 6a 55 88 3e 99 dc cc 3d
       0.13839732 0.071775 0.26627666 0.10003013
000020 ab fa ed 3d 71 51 0a 3e a2 e9 85 3d eb c5 9d 3d
       0.11620077 0.1350763 0.065387025 0.077037655
000030 07 64 75 3f f6 3b a0 3d 8f d1 de 3e c4 15 2a 3e
       0.95855755 0.07823937 0.43519256 0.16609865
000040 8e ba cb 3e 9a 53 a4 3e 72 4e 52 3e 14 53 6f 3f
       0.39790767 0.32095033 0.20537737 0.9348614
000050 d7 76 0c 3f 0d 34 79 3e 8e 34 39 3e 76 af e5 3e
       0.54868835 0.24336262 0.18086454 0.4486043
000060 e4 dd 12 3e a5 2b 12 3e 97 e5 9e 3d 6b bf 1c 3e
       0.14342457 0.14274462 0.077586345 0.15307395
000070 05 1b c5 3d 6f 73 08 3e 1a 78 25 3e 05 d6 90 3d
       0.09624294 0.13325284 0.16159096 0.07072071

weight f4 [64, 32, 3, 3]
000000 3b c4 55 bc 20 76 69 3c ae 19 c2 bc c3 ca 94 bd
       -0.013047273 0.014249355 -0.023693886 -0.07265236
000010 6f c1 e7 3c af d7 96 3d 51 e6 59 3b b8 9c 93 bd
       0.028290479 0.07365357 0.0033248852 -0.07207626
000020 06 ce d1 3c 49 90 2c 3d ae 23 d7 bc b0 b4 65 bc
       0.025610935 0.04212979 -0.02626213 -0.01402013
000030 a9 2b e4 bc 5c 5d 10 bd dd 68 84 3d c5 46 9b bd
       -0.02785285 -0.035245284 0.064653136 -0.075818576
000040 cd 6c 18 bd 93 65 18 bd bd 0f 90 bc 63 6b b9 3d
       -0.037213136 -0.037206244 -0.01758563 0.090536855
000050 7f 1d a9 bb c5 0a 85 3d a3 25 c4 bb d8 e6 eb bc
       -0.005160987 0.06496195 -0.005985932 -0.028796598
000060 50 d7 95 bd 07 13 1a bc 01 98 d4 3c e0 00 50 bd
       -0.07316458 -0.009403951 0.025951387 -0.050782084
000070 a8 a5 26 bd c4 27 89 3d a4 3f 6e 3d 85 18 4f 3c
       -0.040685326 0.06697038 0.05816616 0.012640123
000080 ec 2c d9 bd b3 ef f8 3c 3e 2c 93 3c 12 a0 a1 bd
       -0.10604271 0.030387735 0.017965432 -0.07891859
000090 c3 15 ef 3c 2f 3a fa bc b1 0d ae bc 1b 7b 35 bd
       0.029185181 -0.030545322 -0.021246763 -0.044306856
0000a0 bd d5 44 bd cf 7d 23 3c 69 c0 21 bd 20 81 a4 bc
       -0.0480554 0.009978726 -0.039490137 -0.020081103
0000b0 5c 3d 43 3d 20 0a 11 bd ab 9d 0e 3c 84 6c 44 bc
       0.04766594 -0.035410047 0.008704583 -0.011988763
0000c0 10 5f a8 bd ee b0 8c bd 8d 92 09 3c c9 03 95 3c
       -0.08221257 -0.06869684 0.008396757 0.018190281
0000d0 57 2a cf bd 7d ca 12 be 20 bb 4e bc 4a 04 3a 3d
       -0.101154976 -0.14335056 -0.012617856 0.045414247
0000e0 96 14 69 bd c7 5b 9d 3c b7 2a 2e 3d ec 9c 39 bd
       -0.056904398 0.019208802 0.042521205 -0.045315668
0000f0 64 d8 b6 bd 8a 54 e9 3c 21 8b b9 3d 8c d4 95 3d
       -0.08927992 0.028482694 0.0905974 0.07315931
000100 8f a7 b5 3b fa 77 2d bd 8d 1d 41 3d f0 5a c7 3d
       0.005543656 -0.042350747 0.047147322 0.09734142
000110 03 83 11 3e 79 a1 8a bd d8 4e 36 3d 80 dd 9f 3d
       0.14210133 -0.0676908 0.044508785 0.0780592
000120 ff 08 fe bc 1c 12 98 bd a1 7a 1e 3d 85 0d 11 bc
       -0.031010149 -0.07425329 0.038691167 -0.008853321
000130 17 2e 09 3d c5 ef 8c bd d2 ff a2 bd cd a3 af bb
       0.03349122 -0.0688167 -0.0795895 -0.0053601027
000140 d7 02 81 bc 98 3b a1 bc 14 b2 09 bc 8f c8 30 3d
       -0.015748424 -0.019681737 -0.008404274 0.043160018
000150 6c 4d a1 bd 5b dc 6e ba 5c 94 fa 3d bb 84 af bc
       -0.07876095 -0.0009111815 0.122353286 -0.021425596
000160 04 f5 ca bd 10 17 d9 3d 1a dc 3f 3d 03 11 87 3d
       -0.09910014 0.10600102 0.046840765 0.065950416
000170 5e ea e5 3b 39 5d b1 bd c6 bf ab 3d 37 4c fa 3d
       0.007016464 -0.08660359 0.08386187 0.12221568
000180 2c 3f e7 bc 74 2d 13 3b d1 4b e4 3d f1 e9 8b 3d
       -0.028228365 0.0022457512 0.11147273 0.0683173
000190 85 89 9a 3c 8c 0e 4c bd 77 31 82 3c 71 20 dd 3d
       0.018864403 -0.04981856 0.015892727 0.10797203
0001a0 fc 29 8c 3d 53 fe e2 bd 59 73 02 3e 88 af 8f 3d
       0.068439454 -0.11083665 0.12739314 0.07015902
0001b0 9a 06 89 3d 78 31 8a 3c cf 08 67 3c 97 ef bf 3c
       0.06690712 0.016869292 0.014101221 0.023429675
0001c0 a3 9d 8b 3b 2f 52 53 3d 03 c1 c7 bd 33 fd fb bc
       0.004260735 0.05159205 -0.09753611 -0.030760383
0001d0 ad 94 df 3c 6a 7c 1e bd 23 e1 2a bd ff 85 71 bc
       0.027292574 -0.03869287 -0.041718613 -0.01474142
0001e0 cb 42 88 ba 86 24 09 3c d3 be 73 bd d4 d5 a5 3c
       -0.0010395882 0.008370524 -0.059508156 0.020243563
0001f0 8d e0 10 3c 3a ed 65 bb 6d 81 1f 3c 31 2f ed 3c
       0.0088426 -0.0035084025 0.009735447 0.028953167
000200 af 5f 6b bd 45 55 00 bd 39 00 18 bd 5d 57 0b bb
       -0.057464298 -0.03133132 -0.037109587 -0.002126179
000210 bd 90 dd bd 55 6b c3 3c 2d 9f 1e 3c 15 4a 47 3d
       -0.10818622 0.02385489 0.009681505 0.048654635
000220 92 bd 15 3b 81 c7 a9 3d 9b e8 b4 3c 21 ca 8f bd
       0.0022848588 0.082900055 0.022083571 -0.07020975
000230 c2 a3 bb bc 67 6c 17 3c ef 80 b2 3c a9 09 03 be
       -0.022905234 0.009242154 0.021789996 -0.12796654
000240 9f e5 92 3b 83 94 31 3c 37 f8 4f ba 6a 54 88 bd
       0.0044829394 0.010838631 -0.000793341 -0.06656726
000250 0f 30 6f 3d 8c 3f 25 bd 31 a2 c5 bc 10 67 54 3d
       0.05839544 -0.040343806 -0.02412519 0.0518561
000260 97 4b 05 bd ea 10 60 3c 40 a8 cf bd 41 23 4d bc
       -0.03254279 0.013675908 -0.10139513 -0.012520612
000270 31 37 d8 bc c4 de b6 3b 93 d0 bb bd d8 89 68 3c
       -0.026393505 0.005580755 -0.09170642 0.014193021
000280 ac d6 b2 bd 80 13 02 be ec f5 00 bc 95 70 dc bc
       -0.08732352 -0.12702751 -0.007871132 -0.026909152
000290 6c d1 9c 3d 2a a0 01 bd 34 2d 6c bd 62 ab 0a bd
       0.076571316 -0.031646885 -0.057660297 -0.03385485
0002a0 20 e6 aa bd 0c 38 ce bd 8c 68 94 bd 81 0f 3a bc
       -0.08344674 -0.10069284 -0.07246503 -0.0113562355
0002b0 56 68 82 3c c3 96 a7 bd 84 72 45 3d 21 7b 09 3d
       0.015918892 -0.081830524 0.048204914 0.03356469
0002c0 4e 0a 65 bd 2f 7b 02 bd 0b 2a 7f bc 94 72 07 bb
       -0.05591803 -0.03185576 -0.015573989 -0.002066766
0002d0 1e f8 38 bd 66 80 ac bd d7 fd 6a bd df 25 51 bd
       -0.045158498 -0.084229276 -0.057370987 -0.051061507
0002e0 77 cb e6 3c 5c a8 e9 ba b1 30 07 3d d9 06 76 bc
       0.028173191 -0.0017826664 0.03300542 -0.015016281
0002f0 f2 9b 10 be 64 b2 60 3c 4f b7 d5 bb fc f6 01 be
       -0.14121988 0.013714407 -0.006522096 -0.12691873
000300 3d da 10 3d 86 b2 4e 3c 57 e4 68 bd 9a c3 ac 3c
       0.03536438 0.0126158055 -0.056858387 0.021089364
000310 58 be c1 3d 0e bc 9a bc ce 24 06 bd a0 14 4f 3d
       0.09460133 -0.0188885 -0.032749943 0.05055678
000320 e4 63 96 3c f4 64 8f bc cc 75 63 3d 9b ea 6d 3c
       0.018358178 -0.017504193 0.05553226 0.014521266
000330 7c 2a 22 bd 7b c4 58 bd 4f 99 5b 3d 76 4d 07 3d
       -0.039591298 -0.052921753 0.053613003 0.033032857
000340 88 b5 53 3d f7 39 65 bd a3 e1 b2 bd a7 2d 56 3d
       0.051686794 -0.055963483 -0.08734443 0.05228963
000350 5f 36 d5 bc b6 2d 0b be d5 8c 69 bd 83 04 60 bc
       -0.026026903 -0.13591656 -0.057019074 -0.013672951
000360 2b 0a f0 bc 74 36 c0 bd f1 c6 6b bd 6a e9 0d bc
       -0.029301723 -0.09385386 -0.057562772 -0.008661607
000370 f3 45 0d 3c 19 04 21 bd f4 6f ea bc a6 9c ba 3c
       0.008622634 -0.03931055 -0.028617837 0.022779774
000380 fd 5c a3 bc 64 61 38 3d 5f 2d eb 3c cc 2c 87 bd
       -0.019941801 0.045014754 0.028708158 -0.06600341
000390 30 b2 9c bd 4e 12 a4 bc 2d 56 5c bd 02 c1 82 bd
       -0.07651174 -0.02002826 -0.05379312 -0.063844696
0003a0 a4 34 46 bd 81 b9 53 bd 5f 17 9b 3d 32 24 0a 3d
       -0.048390046 -0.051690582 0.07572817 0.033725925
0003b0 69 ee 94 bd 92 80 0b bd 40 37 bf 3d 19 06 79 3d
       -0.07272036 -0.03405816 0.0933671 0.06079683
0003c0 eb e7 4e bd b1 9d 9e 3c bb a8 c4 3d d1 d0 57 3c
       -0.050514143 0.019362302 0.09602495 0.013172344
0003d0 05 26 a1 3d e4 13 af 3d c5 bf b2 bd 34 8c 1e bd
       0.0786858 0.08548716 -0.087279834 -0.038707927
0003e0 f0 2d fa 3d c6 a6 04 3d f9 f6 89 bd db fa 0b 3d
       0.12215793 0.03238561 -0.067365594 0.03417478
0003f0 29 70 5d 3d eb 6c 73 bd 7a dc b7 bd bf 20 e6 3c
       0.054062042 -0.059430044 -0.089775994 0.028091786

bias f4 [64]
000000 2b 16 0b bd a8 e0 9a bd ed fa 69 bd d4 ec 0c bd
       -0.033956688 -0.07562381 -0.057124067 -0.034405544
000010 a3 3e 20 3d 9e ea 6d 3d 8d bc 17 ba e0 a4 90 bd
       0.039122235 0.058085077 -0.0005788289 -0.070626974
000020 04 5d d9 3c 8e 6b 83 bb e7 03 83 bd d7 2d 5e 3d
       0.026533611 -0.0040106243 -0.06397229 0.054242935
000030 3e 6f 5a 3d 8f de 84 3c 36 92 83 bc ad 63 2d bd
       0.053328745 0.016219405 -0.01606093 -0.042331386
000040 7d bd fa bc 7d 39 67 bc 3f d9 d0 bc 46 79 64 bd
       -0.030607933 -0.014112827 -0.025494216 -0.055779718
000050 54 cd a2 bc 4c d4 22 bd 24 72 d0 bd 11 81 b4 3c
       -0.019873299 -0.039753243 -0.101780206 0.0220342
000060 dd 61 91 3c e3 3f e2 bc 5f 5e 4c 3d 16 0d 2e 3d
       0.01774686 -0.027618354 0.049894687 0.04249295
000070 01 4a 02 3d 35 3e f8 bb f3 1e 0c bd 67 63 8e bc
       0.031808857 -0.007575775 -0.034209203 -0.017381383
000080 82 7a 6e bd 10 bc cd 3b 30 91 83 bd 4b d4 ce bd
       -0.0582223 0.0062785223 -0.06424177 -0.100990854
000090 09 c6 6e bc 36 93 00 bd 53 24 88 3c 1d 63 a4 bd
       -0.014573582 -0.03139039 0.016618883 -0.08026717
0000a0 7f 71 39 3d b8 46 2c bd 7c ef 28 bd cd 52 9c 3c
       0.045274254 -0.04205963 -0.041244015 0.019082451
0000b0 d1 e4 f7 3c b3 4f 33 bd 47 57 1b 3d 09 c9 85 3d
       0.030260475 -0.04377718 0.03792503 0.06532485
0000c0 f2 18 d7 3b af d6 87 3b dd f2 bb bd 0d 59 64 bc
       0.006564253 0.0041454653 -0.09177182 -0.013937247
0000d0 77 16 17 bd aa 4b 4c bd b0 93 f6 bc 06 57 9c bb
       -0.03688666 -0.049876846 -0.03009972 -0.004771116
0000e0 2d e1 35 3d 9a 34 1c bd 19 cc 8d bc d5 05 ac bc
       0.044404197 -0.038136102 -0.017309235 -0.020998875
0000f0 26 b0 4d bd 01 68 78 bd 01 77 19 3c 4f 47 39 bd
       -0.050216816 -0.06064606 0.009366752 -0.04523402

weight f4 [128, 1600]
000000 e8 98 ae 3c e2 2d c5 3c 83 5a 08 3c 07 b2 ba 3b
       0.021313146 0.02406973 0.008322361 0.005697492
000010 43 7c 5a bc e0 18 8a bc 67 35 fa 3a 1a 00 12 bb
       -0.01333529 -0.016857564 0.0019089401 -0.0022277893
000020 f5 bf bf 3c 6d 3e 7c bc 87 65 0c bc da 5a 5a 3b
       0.023406962 -0.015395743 -0.008569128 0.0033318312
000030 9a e1 f1 3b 2d e9 a0 bb f3 a0 3c bc 1a f1 12 bc
       0.00738163 -0.004910609 -0.011512983 -0.008968616
000040 1a 88 7f bb a3 27 86 bc 04 a0 88 3c 25 74 d6 3c
       -0.0038991035 -0.016376322 0.016677864 0.026178429
000050 00 80 6e 37 00 b6 7e 3b a0 4c 9e bb 49 74 e4 bb
       1.4215708e-05 0.0038865805 -0.0048309118 -0.00697187
000060 3a 0d 76 3c d3 4e 17 3c ba a3 63 3c d7 09 4f bc
       0.015017802 0.009235102 0.013894016 -0.012636623
000070 2a e9 c9 3b 89 31 71 3b a3 c9 78 bc c2 de 85 bc
       0.0061618285 0.0036803207 -0.015184793 -0.01634157
000080 4f 0f 05 3c 86 6d 15 bb ed c7 c1 bc 52 14 c1 bc
       0.008121326 -0.0022800877 -0.023654902 -0.02356926
000090 b7 24 4c 3c 59 4b 8c bc b0 bc 8b 3c 5d 4f 83 3a
       0.012459925 -0.017125772 0.017057747 0.0010018159
0000a0 34 1f 21 3c 5e d3 5c bc 94 78 dc bc ac 88 e4 bc
       0.0098341 -0.013478128 -0.026912965 -0.027897201
0000b0 3a e7 90 bc 02 6a fd 3b 40 1a b4 3a 5d 01 30 bc
       -0.017688382 0.0077335844 0.0013740733 -0.0107425125
0000c0 aa 33 da 3c fe f3 7c bc b6 ef d7 bc 7f 5c ea bc
       0.026635963 -0.015439032 -0.02635942 -0.028608559
0000d0 2e d9 c5 bb 64 98 38 bc 48 f2 50 3b 18 b0 e9 bb
       -0.0060378527 -0.0112668015 0.0031882692 -0.0071315877
0000e0 03 06 b9 bc e5 ff 42 bc fc 91 b5 bc 9b d6 d3 bc
       -0.022585874 -0.01190183 -0.022164337 -0.025859168
0000f0 45 46 55 3c 90 cc e6 bb 45 41 d8 bc 47 42 71 3c
       0.013017242 -0.0070434287 -0.02639831 0.014725274
000100 ea 67 c2 3c 46 0c 65 3c 65 ad 38 bb e1 c9 fc 3b
       0.02373119 0.013979977 -0.0028179523 0.0077144955
000110 e9 f6 bf 3c da c7 db bc d1 d4 76 3b 68 c5 d5 bc
       0.023433166 -0.026828695 0.003766347 -0.026095107
000120 9f 19 94 3b 8a eb d1 3b 38 16 7e 3c cd e5 89 bc
       0.004519656 0.0064062523 0.015508227 -0.01683321
000130 a5 8f 9d 3b c0 81 c8 bb 85 41 f5 bb b6 28 c5 bb
       0.0048083835 -0.006118983 -0.007484617 -0.006016816
000140 1b 26 8a bc 68 31 20 bc ee a0 4d 3b 72 b8 9f 3c
       -0.016863873 -0.009777404 0.003137644 0.01949713
000150 99 28 d2 bc ac b6 43 bc 49 92 c6 3c 6e 1f c9 bc
       -0.025654124 -0.011945408 0.024239676 -0.02455112
000160 2b 6e 96 bc 19 b2 51 bb 63 41 e8 3b 9f b9 5c bc
       -0.018363079 -0.0031997024 0.007087873 -0.01347199
000170 d7 4c 10 bc e3 dd 43 bc 5c 25 9c bc 2e 12 f9 3b
       -0.008807383 -0.011954757 -0.019060783 0.007601044
000180 69 7c 08 bc 7c 85 9d 3c 2f bf 95 bc 0c 3f 1f bc
       -0.008330443 0.01922869 -0.01827964 -0.009719621
000190 d9 27 29 3c a7 24 e6 bc 9f 6b 5b 3c 60 01 ee bb
       0.010324442 -0.02809365 0.013392358 -0.0072633475
0001a0 10 54 1f 3c 62 cd 93 3c 10 2a d8 3b b8 af 77 bc
       0.009724632 0.01804227 0.006596811 -0.015117578
0001b0 8c 22 50 bc 0a 59 1c bc 61 11 9f bc 2b 51 94 3c
       -0.012703549 -0.009542713 -0.019417467 0.01810511
0001c0 57 7f 4f 3b c6 d2 dd bb 3d 57 be bc c1 54 4d bb
       0.0031661594 -0.006769511 -0.023234958 -0.0031331035
0001d0 f5 e9 7e bc b9 ed ac bc 74 d1 d4 3a f6 60 d9 bb
       -0.015558709 -0.021109449 0.0016236738 -0.006633873
0001e0 7b a0 45 3b 93 e9 7d 3c 38 05 f3 bc f0 13 ac 3b
       0.0030155468 0.015497583 -0.029665574 0.0052514
0001f0 05 23 5e 3c d5 7b 5b bc db 27 71 3b c2 6e 8b bc
       0.013558154 -0.013396223 0.0036797437 -0.017020587
000200 21 cb 87 3b 57 61 ae bc ce ce e2 bc 93 c0 04 3c
       0.004144088 -0.02128665 -0.027686503 0.008102554
000210 47 96 2b bc 1f 9a 5d bb e9 78 28 bc 34 d7 00 3c
       -0.010472841 -0.0033813787 -0.0102827335 0.007863808
000220 77 d7 bd bc cd e0 13 bc 66 ba b1 bc 86 04 2b bc
       -0.02317403 -0.009025765 -0.021695327 -0.01043809
000230 49 3a 01 3c 64 5c 92 bc 99 19 1c bc d7 9d 94 3b
       0.007887431 -0.01786632 -0.009527587 0.0045354175
000240 43 b0 f3 bb 15 51 8d bc 53 d5 85 bb a6 82 de 3b
       -0.0074367835 -0.017250577 -0.004084268 0.006790477
000250 34 97 d1 b9 61 79 45 3c ed bd ac 3b d5 28 d6 bc
       -0.00039976242 0.012052865 0.0052716644 -0.026142517
000260 09 c0 1d bc ee 62 6c 3a 62 fa 9a bc 3e 62 17 bc
       -0.009628304 0.0009017427 -0.01891822 -0.009239731
000270 30 6d 01 bc f6 0c b1 bc c4 2f ca bc 27 a6 9d bc
       -0.0078995675 -0.021612626 -0.02468098 -0.019244267
000280 23 8d 13 bc 91 b9 f0 bc a3 af fa 3b f8 e2 55 3b
       -0.009005818 -0.02938536 0.007650332 0.0032636505
000290 a4 73 a7 b8 22 ba 32 3c dd f4 0b 3c 83 3c b3 bc
       -7.98472e-05 0.010908635 0.008542267 -0.02187944
0002a0 8f e4 33 bc e2 e5 31 bb 39 92 18 bc fe 66 18 3c
       -0.010979786 -0.0027145077 -0.009312206 0.009301899
0002b0 28 15 c4 38 95 b6 84 bc 27 e5 76 3c 10 78 83 bc
       9.349949e-05 -0.016200343 0.015069283 -0.016048461
0002c0 1a de 31 3b 03 5a a8 bc 53 f3 90 bc c0 21 08 bc
       0.002714044 -0.020550733 -0.017694151 -0.008308828
0002d0 23 a3 26 3c da dc 04 3c 20 81 c5 3c 2d 22 c9 bc
       0.010170731 0.008109296 0.024109423 -0.02455243
0002e0 2d ed 35 3c f3 46 45 3b 60 1a cd 3b 27 68 0a 3c
       0.01110391 0.0030102103 0.0062592477 0.008447683
0002f0 00 06 65 bb c7 e3 eb 3b f3 d1 37 bb 13 af ed bb
       -0.0034946203 0.007198784 -0.0028048723 -0.0072535365
000300 ad 89 22 3c 65 73 cb 3c 47 57 9b bb 47 a1 0f 3c
       0.00992052 0.024835298 -0.004740629 0.008766479
000310 5a ed 45 3b 3a f9 89 bb 00 07 cc 3c 07 4e cd bb
       0.0030201287 -0.0042106183 0.024905682 -0.006265405
000320 30 33 43 3c 63 ba 16 3c c7 24 ab 3b 55 a6 76 ba
       0.0119140595 0.0091997115 0.00522289 -0.00094089407
000330 b7 68 98 bc 1b 40 8d 3c da ad 0a 3c 4b e2 d5 bb
       -0.01860462 0.017242482 0.008464301 -0.0065272204
000340 71 8a d0 bc 17 c8 bd bc 85 47 c6 bc 3a 6b 82 3c
       -0.025456639 -0.0231667 -0.024204025 0.01592027
000350 b4 84 e4 3b fa 42 c5 bc 70 96 c2 bc 8b 92 b7 bc
       0.0069738273 -0.024079788 -0.023753375 -0.022408744
000360 af fc 6a bc 3b 1b 99 bc 82 b2 95 3c dc 75 dd bb
       -0.014342471 -0.018689742 0.018273596 -0.0067584347
000370 a9 76 1a bb 07 63 87 bb 8f b1 87 3c 2e f6 69 bc
       -0.0023569262 -0.004131678 0.016564159 -0.014279885
000380 da 17 5b bc 20 f2 a3 3c ed 55 21 3c 0d 1c 5f bc
       -0.013372386 0.020012915 0.009847146 -0.013617528
000390 e4 b6 d9 bc 30 47 77 bc 02 fc a6 bb 76 da a7 3c
       -0.026576467 -0.015092656 -0.0050959596 0.020489912
0003a0 c2 d7 61 3b b1 f3 92 bc e8 29 7f bc d8 dc 21 bc
       0.0034460877 -0.017938467 -0.015573956 -0.009879313
0003b0 33 08 b2 3b 71 16 cc bc 78 79 96 3c 91 73 93 bc
       0.0054331063 -0.024913045 0.018368468 -0.017999442
0003c0 ae 84 78 bc 96 09 d9 bc 15 cf 8c bc 9f 30 61 3c
       -0.015168352 -0.026493829 -0.017188588 0.013744502
0003d0 40 4a f3 bc fd 56 21 3b e0 74 a8 bc f0 dd b6 bb
       -0.029698491 0.00246185 -0.020563543 -0.005580656
0003e0 d2 3d c0 bc 86 c1 e4 3c a7 50 73 3b c3 37 29 bc
       -0.023466978 0.02792431 0.003712693 -0.010328236
0003f0 ad 76 84 bc 90 7d f5 bc 2e ff db bb 75 db a3 3c
       -0.01616987 -0.0299671 -0.0067137694 0.020002106

bias f4 [128]
000000 f1 bf 30 bb 77 62 fe bc 2a b5 e5 bc 23 10 b1 3c
       -0.0026969875 -0.031052811 -0.028040487 0.02161414
000010 08 b6 18 3c af 26 6d 3c 41 7e b1 bc 8a 94 67 bc
       0.009320743 0.014474555 -0.021666648 -0.014134536
000020 f4 a1 4d bb da ab b1 b9 a1 7d ba 3c 8f 97 c3 bb
       -0.003137705 -0.0003388811 0.022764983 -0.005968995
000030 03 11 bd bc 2c 47 98 bc e4 25 df 3c c0 cd 3d bb
       -0.0230794 -0.018588625 0.027239747 -0.0028961748
000040 82 d9 10 38 a5 34 23 3c c0 8b 59 bc d6 3b cb 3c
       3.4534845e-05 0.009961282 -0.013277948 0.024808805
000050 dc 90 45 3c bb 93 7e 3c 0a 1c 3e 3c b2 90 c3 3c
       0.012058463 0.015538151 0.011603365 0.023872707
000060 f0 61 11 3b f2 17 26 3c 46 83 4b bc 99 4e b2 bc
       0.002218362 0.010137545 -0.012421435 -0.021765994
000070 2d 16 df bc 39 40 b1 bb 0c 6f 1e 3d 0c 99 2f 3c
       -0.027232254 -0.0054092673 0.03868012 0.010717642
000080 58 5d 80 39 28 73 1c bb e0 99 f1 3b 82 0c cb 3c
       0.0002448361 -0.002387235 0.0073730797 0.024786238
000090 53 c3 1c 3c 09 f0 8d bc f4 4b f1 bc 8c 2f e7 3a
       0.009568053 -0.017326372 -0.029455163 0.0017638071
0000a0 0b a3 a5 bb 2a 46 42 3c c8 3c 21 3c e8 e9 18 ba
       -0.0050548366 0.011857549 0.009841152 -0.00058331946
0000b0 39 d7 77 3c 4f 9b b4 3c e5 a1 b0 bc 53 46 72 bc
       0.015126997 0.022046713 -0.021561572 -0.014787274
0000c0 d7 5d 55 3c fe 52 ab bc 87 77 72 bc ca 03 bc bc
       0.013022861 -0.020913597 -0.014799005 -0.022951026
0000d0 a3 e6 a4 39 1b 7a c8 3b 13 3a 00 bd 8c 6d 8d bc
       0.00031452355 0.0061180717 -0.031305384 -0.01726415
0000e0 ff a4 80 bc 98 28 be bc eb b6 c6 3c b7 6a d1 bc
       -0.015703676 -0.023212716 0.024257144 -0.02556358
0000f0 8d ea 18 3b 73 60 82 bc 0d 5a 55 ba 16 43 37 3c
       0.0023333163 -0.015915131 -0.0008138724 0.011185428
000100 5b ce a9 bc e4 55 aa bb 48 58 0d bc 2e 3c fc bc
       -0.02072828 -0.0051982272 -0.008627005 -0.030790415
000110 16 73 92 bc 6f 37 dd 3c 29 dd c9 b9 60 80 b6 3c
       -0.017877143 0.027003972 -0.00038502485 0.02227801
000120 11 d2 28 bb 48 d9 70 bc a5 b3 a3 3b 39 ce 8d 3c
       -0.0025759975 -0.014700241 0.0049957805 0.017310249
000130 fb 26 e2 bc 18 c5 29 3c 11 45 61 3c ce 7e 14 bc
       -0.027606478 0.010361932 0.013749377 -0.009063436
000140 8a 3c 5e 3c ae cb 88 bb 43 7c 52 bc 34 af 33 bc
       0.013564238 -0.004174671 -0.012847009 -0.010967065
000150 26 bf 16 3c bc 60 35 3b 1c 4e bb bb fc de 1a bc
       0.009200847 0.0027676066 -0.0057160985 -0.009452578
000160 dd be 25 bc 05 84 59 3b 31 27 a0 3c 86 89 96 bc
       -0.010116306 0.0033190262 0.019549938 -0.018376123
000170 7e f5 8b bc a1 fc 59 3c b7 ce ae bc 05 fd 15 3d
       -0.017084833 0.01330486 -0.021338804 0.03661825
000180 1f 8e bb 3c 88 db 8f 3b b3 77 61 3c 7e 0d 41 bc
       0.022894917 0.004390184 0.013761449 -0.011783002
000190 3f 2d 6f bc 5e 4f b9 3b 44 b7 9b bc 0b 23 e0 bb
       -0.01459819 0.0056552133 -0.019008286 -0.006840115
0001a0 6b 56 cf bc cf 60 80 bc 51 3d 74 3c 0a 0a 13 bc
       -0.025309762 -0.015671162 0.014907197 -0.0089745615
0001b0 61 41 56 bc 7a ef 00 bb 6d fe 85 3c ae bd 4b 3c
       -0.013077111 -0.001967399 0.016356671 0.01243536
0001c0 dc b7 3b bc ab e4 a3 3c 30 e4 82 3c 61 7d 5a bb
       -0.01145741 0.020006498 0.015977949 -0.0033338892
0001d0 49 57 8f bc 14 44 07 3d cf 20 55 3c 33 54 bf bc
       -0.017497675 0.03302391 0.01300831 -0.023355579
0001e0 64 ed e3 3b 4c 7b 23 bc 1c ef 46 3c 43 4f 73 3c
       0.0069557894 -0.009978127 0.012141969 0.01485044
0001f0 6b 42 94 bc ec 29 93 bc 14 87 aa 3c 44 9d 92 3c
       -0.018098077 -0.017964326 0.020816363 0.017897256

weight f4 [10, 128]
000000 ee 98 a0 3d 3b aa 0a be c0 84 a6 bd 0e 9a 4c bd
       0.07841669 -0.135415 -0.08130789 -0.049951605
000010 35 8c 2b bd 4d d5 1a bd 18 ab 0e bd 59 ba 38 3d
       -0.04188176 -0.037801076 -0.034831136 0.04509959
000020 44 d6 8b 3c cf 21 9e bd 41 15 89 bc e3 ee 17 bd
       0.017069943 -0.07721292 -0.016733767 -0.037093055
000030 9b 08 73 3c fe 38 a0 3d 10 62 f0 bd 37 54 00 bb
       0.014833595 0.078233704 -0.11737454 -0.0019581446
000040 fb f6 b6 3d 10 58 dc bd 68 f6 b7 bd 1d 8e 78 bd
       0.089338265 -0.10758984 -0.08982545 -0.060682405
000050 b7 9a 95 3d 5f eb 4c b9 7f b6 b0 3d d5 ad c1 3d
       0.073049 -0.00019542639 0.08628558 0.09456984
000060 21 70 85 bd dc b9 ee bc f5 88 6c bc a7 db 88 3d
       -0.065155275 -0.029141359 -0.01443695 0.0668252
000070 d7 2b b6 bd eb ed a3 bc a4 48 f5 3b 6d c7 b0 bd
       -0.088950805 -0.020010909 0.007485466 -0.086317874
000080 b4 c6 64 3d 3e 67 40 bd 97 c8 24 be 3c 23 e0 bd
       0.05585356 -0.04697346 -0.16092144 -0.109442204
000090 fd 42 35 3c 1a f0 5e bd b5 4e 9b bd 5c f3 bd bc
       0.0110633345 -0.054428197 -0.075833715 -0.023187332
0000a0 b5 96 00 3d 0b 25 35 bc f6 3e 2f 3b 4e 1a 9b bd
       0.031393725 -0.011056195 0.0026740409 -0.075733766
0000b0 7e 4c 31 bd 31 03 c1 bd 68 49 e2 3b da 02 83 3c
       -0.04328584 -0.09424437 0.0069057234 0.01599257
0000c0 81 5c d3 bb ae 82 bf 3c bd 4b 12 bd 91 ca 33 3d
       -0.0064502363 0.023377743 -0.03571676 0.043894354
0000d0 9e ad 76 3a 1e f0 cb 3d ee 87 a9 3c a4 34 71 bd
       0.0009410026 0.09957908 0.0206947 -0.058888093
0000e0 78 9b 08 3c 61 2c 96 3d 88 0f 01 be ba af e1 bc
       0.008337848 0.07332683 -0.12603581 -0.027549613
0000f0 b3 29 96 3d 01 e2 8e bc 60 4d 30 bd d6 3a 23 3d
       0.07332172 -0.017441751 -0.04304254 0.039851032
000100 5d 49 74 bd 8d ac e2 bc 7f 92 00 bc 36 99 3d 3c
       -0.059640277 -0.02767017 -0.007847427 0.011572173
000110 bb 34 66 3c 1f 30 8b 3d 40 9d 95 3d b5 e7 ce bd
       0.014050658 0.06796288 0.07305384 -0.10102788
000120 89 f3 ca 3d 7b c3 88 3b 8c 3b 41 3d 34 d5 9b 3d
       0.09909732 0.0041736937 0.04717593 0.07609025
000130 e1 8a 22 3d 76 29 86 bc b8 2d cb bb 77 a3 1d 3c
       0.039683226 -0.016377192 -0.0062005185 0.009621493
000140 9c 85 92 bc 82 f4 20 bd db 1b f0 bd 00 7f 3c bd
       -0.017885976 -0.03929568 -0.11724063 -0.046019554
000150 fa 00 25 3d f9 25 64 bd 15 fd 92 bd 57 ed 8b bd
       0.040284134 -0.055700276 -0.07177178 -0.06832378
000160 04 a8 67 bd 0a 2e 4c 3d 58 f3 c9 bd 62 10 aa bd
       -0.056556717 0.049848594 -0.09860867 -0.08303906
000170 aa 83 9f 3d 74 89 99 3d 1d 0d 1f 3d b2 30 45 3d
       0.07788785 0.0749692 0.038830865 0.048142143
000180 19 1a 1d bd 99 0d 78 bd 6c 08 43 3d fa 77 b6 3d
       -0.038354967 -0.060559843 0.047615454 0.089096025
000190 34 58 95 bd 8d 31 1d 3d 61 b0 e4 3c 45 46 d7 3c
       -0.07292214 0.038377333 0.027916135 0.026278624
0001a0 a1 b4 9b bd 31 8a ac bb 28 2f b8 3c 9f a6 38 bd
       -0.076028116 -0.005265497 0.022483423 -0.045080777
0001b0 6b 3f 63 bd 33 e6 82 bd 71 40 39 bd 5c 0f 4a 3b
       -0.055480402 -0.06391563 -0.04522747 0.0030831909
0001c0 70 29 2f bd 1c d3 a0 3d 56 17 52 3d f1 81 9f bc
       -0.042764127 0.07852766 0.051291786 -0.01947114
0001d0 07 c4 4a bd f3 c8 ae 3d a1 72 61 3d 6e 48 73 bb
       -0.049503352 0.08534422 0.05504096 -0.003712203
0001e0 ec fb 5a 3c ab f2 7c 3a 1e 0b b7 bd 0e ee 1a 3d
       0.013365727 0.00096491975 -0.08937667 0.037824683
0001f0 c8 1c d2 bc 94 bb 6b bd 93 30 05 bd c7 05 6c 3d
       -0.02564849 -0.057551935 -0.032517027 0.057622697
000200 4c fc a1 bd 9d 4d 05 be 36 80 87 bd 86 6c 81 3d
       -0.0790945 -0.13017888 -0.06616251 0.06319527
000210 cc 2e e4 3b e8 a2 86 bd c2 9b 00 bd fa c5 05 bd
       0.0069635864 -0.06574041 -0.031398542 -0.03265951
000220 b1 7a 8d 3b 42 c9 9c 39 50 3b c8 3d 8b e5 d6 3c
       0.0043176045 0.00029904587 0.09776938 0.026232501
000230 79 f2 09 bd 51 04 dd bc 70 df 42 3d f3 29 85 bd
       -0.033678506 -0.026979597 0.047576368 -0.06502142
000240 43 67 79 3d 04 70 a1 bd 49 10 ac bb a4 ea 46 3d
       0.060889494 -0.078826934 -0.005250965 0.048563614
000250 8b 75 aa 3d 05 42 a5 3d 61 98 a9 3d 51 93 27 bd
       0.08323201 0.08069233 0.08281017 -0.040911976
000260 c7 d2 4a bc 37 ea b1 bd 1e 53 c9 ba 02 3e 1d bc
       -0.012379355 -0.08687251 -0.0015359854 -0.009597303
000270 b0 73 55 bd 61 af 65 bc 5d 85 03 3e 31 54 fc bc
       -0.05211228 -0.014018864 0.12843843 -0.030801864
000280 85 0b 43 3d 76 7b ab bb e5 e2 d0 3d 70 78 80 3d
       0.047618408 -0.0052332236 0.10199527 0.06272972
000290 b2 90 ac 3c 97 21 52 bd 4b 72 14 bd 92 36 ba 3d
       0.02106509 -0.051301565 -0.03624181 0.0909244
0002a0 08 4a de 3c 2c 9a 22 bc 7a 22 a0 3d 88 3f 97 bd
       0.02713491 -0.009924453 0.07819076 -0.073851645
0002b0 3d 65 ae 39 10 aa 8b bc bf 73 48 bd 21 5b 15 bd
       0.00033263295 -0.017048866 -0.04893851 -0.03646386
0002c0 9a 6f f9 3c 51 a1 c0 3c d0 07 2a bd f4 eb e0 bd
       0.030448724 0.023514422 -0.041511357 -0.109825045
0002d0 78 b3 52 bd e0 c4 8d bc ad c6 9e 3d e0 5f 5d bd
       -0.051440686 -0.017305791 0.07752738 -0.05404651
0002e0 ce 91 99 bd 99 0e b4 bb d4 f0 03 3d 33 3a 17 3c
       -0.07498513 -0.0054949042 0.032212093 0.009230184
0002f0 fc 3e ca 3d 33 80 a4 bd 1f 18 99 3d 8e 8b 83 bc
       0.098752946 -0.080322646 0.07475304 -0.016057756
000300 c1 4a b2 bd 6b 8b 54 bd ee 33 9b bb c1 62 a3 bd
       -0.087056644 -0.05189077 -0.004736415 -0.0797782
000310 c3 30 3a bd 8d f5 ba bd 70 da 59 3d 82 9f b2 bc
       -0.04545666 -0.09128866 0.053186834 -0.021804575
000320 12 79 d0 bc b4 2d c1 bd 21 fc 98 3d b5 72 3f bd
       -0.025448356 -0.09432545 0.07469965 -0.046740253
000330 65 b8 9e 3a 4b a9 64 bc 11 f5 d8 bb 52 78 9f bc
       0.0012109397 -0.013956378 -0.006621011 -0.019466553
000340 82 39 ef bd e5 de 35 bb 66 b2 35 3b 32 79 f7 3c
       -0.116808906 -0.0027751264 0.0027724742 0.030209158
000350 76 90 cd bc c8 2b 6f bd 26 ba a3 3d 28 30 a7 bc
       -0.025093298 -0.058391362 0.07994489 -0.020408705
000360 6a f2 6b 3d 63 3a a1 bc 28 84 1a 3e b7 9a 38 bd
       0.05760423 -0.019681161 0.15089476 -0.045069423
000370 9d c6 03 3a 7b 3f 91 bd d3 5a 52 bd 88 07 a4 3d
       0.0005026849 -0.07092186 -0.051356148 0.08009249
000380 2d 49 2d bc be 12 b1 3d 50 d4 0b be 08 c9 83 3d
       -0.0105765285 0.08646153 -0.1365521 0.06434828
000390 e9 77 50 3b 72 fa 26 bd be f0 c1 3c 50 10 fb bb
       0.0031809753 -0.040766187 0.023674365 -0.0076618567
0003a0 76 32 a8 bd 65 d3 c5 bd 9b b1 37 3d b3 e5 f4 bd
       -0.0821275 -0.09659461 0.044847112 -0.11957874
0003b0 42 e5 84 bd dd 68 b9 3c a4 e6 8f 3d db dd 35 3d
       -0.0648904 0.02263301 0.07026413 0.04440103
0003c0 b3 8d 33 3d 7f 16 fd bd 49 50 3d 3d e4 4e 49 bd
       0.043836307 -0.123578064 0.046219144 -0.0491475
0003d0 0a cc b4 bc a2 23 ca 3d 44 b4 ab bd 35 eb 5f bd
       -0.02206995 0.09870078 -0.08383992 -0.05466767
0003e0 cf 86 12 3c e5 21 29 bd 55 96 81 3d 1e 67 26 bd
       0.008943274 -0.04129209 0.06327502 -0.040625684
0003f0 4c e8 ca bb 47 cf 15 bd e0 94 06 bd c0 76 cc 3c
       -0.0061922427 -0.03657463 -0.032856822 0.024958968

bias f4 [10]
000000 62 42 84 3d 5d a8 ec 3c 70 10 d4 bc 07 d7 55 3c
       0.06457974 0.028888876 -0.025886744 0.013051755
000010 f2 38 04 bd b7 37 9b bd 36 98 d6 3c 0a 26 94 bd
       -0.03228087 -0.07578986 0.026195627 -0.07233818
000020 7f 9c 3a 3c 4c 89 9d 3c
       0.011389851 0.019230507
